checkpoints/output_1/linear_weights.npy (npy, 432 bytes, 1 tensors)

array f8 [38]
0	0x3f5a29f1b41eec2d	0.0015969143282592677
1	0x3f5556bc45e4f52e	0.0013024176219709849
2	0xbf503c53ddda4802	-0.0009909457216150668
3	0xbf77040f898700d2	-0.005619106952906532
4	0x3f3c1b484015b4e6	0.000428872241250057
5	0xbf74a31f188984ba	-0.005038377254636456
6	0x3f5b072b1365be28	0.0016496582662418689
7	0x3f683b8aa59b235e	0.002958079142306876
8	0xbf811dcef07df8f8	-0.008357636179195257
9	0xbf7a6e4d3cd6bda0	-0.00645284815747918
10	0x3f7b64a969ec6bf9	0.006687795422091186
11	0x3f6839d98852c173	0.002957272403897254
12	0xbf5017b83220c057	-0.00098221767303743
13	0xbf7504cbac09ee7b	-0.005131526559690176
14	0x3f7dfa9474fedeb7	0.007319049749575582
15	0x3f7ffe7e51b83927	0.007811063227121807
16	0x3f884404a73af3d8	0.011848484376395449
17	0x3f6c560f2a908c8c	0.003459004994981257
18	0xbf7c95155c465f4f	-0.006978114547017202
19	0xbf7319d7fff2ce4f	-0.004663318394864626
20	0xbf83393ee607d943	-0.009386531252840618
21	0x3f7b059ded19e2cc	0.006597153567434243
22	0x3f6c5a8844da86d9	0.003461137914954598
23	0x3f950acd8008683e	0.02054902166319316
24	0x3f61023a99c7e1fe	0.002076258139137587
25	0x3f90afde3c6e5207	0.016295883596813023
26	0xbf5d11fbc20a19c9	-0.0017743071149723835
27	0xbf841d7a6c5e62da	-0.009821850235128538
28	0x3f77df6cec77f252	0.005828309519980994
29	0x3f88e7a90c7318b2	0.012160607044631486
30	0xbf74fcb0d9ba4dd3	-0.005123797247182665
31	0x3f9c0161cec6d3cf	0.027349022145887688
32	0x0000000000000000	0.0
33	0x0000000000000000	0.0
34	0x0000000000000000	0.0
35	0x0000000000000000	0.0
36	0x0000000000000000	0.0
37	0x0000000000000000	0.0
