checkpoints/output_1/logistic_weights.npy (npy, 432 bytes, 1 tensors)

array f8 [38]
000000 15 5e 39 30 1c 06 96 3f 19 49 8b 8c f7 e4 9f 3f
       0.021507683223118763 0.031146877244119773
000010 9f c1 fc 49 d9 f5 8d bf 21 3a fb e2 60 f4 a3 bf
       -0.014629075594343286 -0.038973834712681794
000020 e6 25 ac 8d 58 3a 60 3f e4 ca 01 77 12 3c 96 bf
       0.0019809464987516788 -0.021713531983958215
000030 70 94 25 5d 73 8f 6a bf 63 6c f2 66 1c 64 96 3f
       -0.0032422307205473497 0.021866267951378037
000040 98 5b 14 2f 0a 03 a0 bf e4 2b 0a 8d 84 69 96 bf
       -0.0312731916875954 -0.02188689337576112
000050 26 c3 72 56 2b 5a 9b 3f 35 65 3f 98 3a 3e 87 3f
       0.02671115603579035 0.011349160929898442
000060 3d 4a 62 af 00 0a 92 bf 2c 9b 04 03 6e 4d 8e bf
       -0.017616282181345467 -0.014796122996427373
000070 88 95 2c c9 20 64 8e 3f f0 66 5f 35 5e 6c a6 3f
       0.0148394166367989 0.04379553224107535
000080 dd 8c f5 e8 c5 32 b3 3f 55 9d 97 3e b3 70 a0 3f
       0.07499348580818173 0.03210983408990368
000090 9d ac f9 40 87 ba a1 bf 04 69 82 14 7d 53 92 bf
       -0.03462622326045415 -0.017896608712001175
0000a0 aa be 54 18 6a 5f a6 bf 2f ea 49 91 00 8d a1 3f
       -0.043696704359147034 0.034278886542740465
0000b0 c0 c1 b7 5e d8 de 49 3f 51 23 38 7d 22 3b ba 3f
       0.0007895046705340067 0.10246482426749749
0000c0 a0 a4 18 20 df 21 66 3f b1 9a 1b 94 2a a0 b5 3f
       0.0027016981046200234 0.08447519412912176
0000d0 88 05 9a 45 09 f3 66 bf ee b8 c6 06 27 06 aa bf
       -0.002801435574668335 -0.05082818944662103
0000e0 eb 17 79 b9 40 7a a0 3f 61 d0 c2 c6 ab 3c ae 3f
       0.03218271507334677 0.05905663300782816
0000f0 06 95 13 57 63 02 9e bf 7f ac e4 2c da 19 c1 3f
       -0.0293059846780084 0.13360144798329895
000100 b5 b1 c1 02 52 76 f5 3d c5 56 38 de c9 09 fe 3d
       3.1231595326986793e-10 4.3711387133153236e-10
000110 3c 73 da 6f 8a 45 fd bd b8 c2 6b 21 cc 0f d5 3d
       -4.2595847669680487e-10 7.662204929151631e-11
000120 10 d6 75 d3 5b 0f c8 3d 3f 12 e5 b1 82 85 fc 3d
       4.3764875779416996e-11 4.1504282120055086e-10
